models/demand_forecast.pt (torch, 72757 bytes, 6 tensors)

lstm.weight_ih_l0 f4 [256, 1]
0	0x3f08dd68	0.5346284
1	0xbedb2fcc	-0.42809904
2	0x3de845db	0.11341449
3	0xbe6d1482	-0.23152354
4	0xbdef3188	-0.11679369
5	0x3f37ca13	0.71792716
6	0xbdfd55e9	-0.12369902
7	0xbe5bc39f	-0.21461342
8	0xbc7d1144	-0.015446011
9	0x3e0bfbaf	0.13670228
10	0x3f270f20	0.65257454
11	0x3e70c7eb	0.23513763
12	0x3f620ff6	0.88305604
13	0x3e945e13	0.28978023
14	0x3c286036	0.010276845
15	0x3df10ca5	0.1176999
16	0x3bf28afa	0.007401821
17	0xbefd9e22	-0.49534708
18	0xbf3b92a1	-0.7327061
19	0xbdf7dcd1	-0.12102664
20	0x3f40e5aa	0.7535044
21	0xbed43a88	-0.41450906
22	0xbbe96067	-0.0071220878
23	0xbdd77909	-0.105211325
24	0x3d911d02	0.07085611
25	0x3ebfe456	0.37478894
26	0xbc9326f5	-0.017962912
27	0xbe9757b9	-0.29559115
28	0x3e812747	0.2522528
29	0xbeaccd74	-0.33750498
30	0x3ed5f20c	0.4178623
31	0x3de4898f	0.1115905
32	0x3d89aa5e	0.06721948
33	0xbd71f0ac	-0.059067413
34	0xbe949dc4	-0.29026616
35	0x3f0360eb	0.5131976
36	0xbee860f1	-0.4538646
37	0xbe757b39	-0.23972787
38	0xbe16a57b	-0.14711563
39	0xbd1ded4f	-0.038556393
40	0x3e102ae5	0.14078863
41	0x3dbf56a4	0.09342697
42	0x3e445747	0.19173919
43	0xbdcb833a	-0.09937139
44	0xbe18bdb4	-0.14916116
45	0x3d728ef0	0.059218347
46	0xbe98cfd1	-0.2984605
47	0xbcf99ede	-0.030471262
48	0xbc97129b	-0.018441489
49	0xbee79736	-0.45232552
50	0xbfb48ce4	-1.4105496
51	0xbec87f0c	-0.3915943
52	0xbe0c246e	-0.13685772
53	0xbe5e5fc0	-0.21716213
54	0xbd962826	-0.073318765
55	0x3da2d134	0.079500586
56	0x3d7e3039	0.062057707
57	0xbf8caaf1	-1.0989667
58	0x3de3778a	0.11106785
59	0xbe48823e	-0.19580933
60	0x3ea936db	0.33049664
61	0x3f028041	0.5097695
62	0x3ec899d1	0.39179853
63	0x3dd6568b	0.104657255
64	0xbecff27e	-0.40614694
65	0xbde35a21	-0.11101175
66	0x3f032394	0.5122616
67	0x3e13efcc	0.14446944
68	0xbd0a68fe	-0.033791535
69	0x3e35e21e	0.17762038
70	0x3dfcd308	0.123449385
71	0xbe0e3db8	-0.13890731
72	0x3f1e6803	0.6187746
73	0x3f06b8ee	0.5262593
74	0x3ef66b42	0.48128706
75	0xbdbb5899	-0.09147758
76	0xbe2a1a8e	-0.16611692
77	0xbdd4d094	-0.103913456
78	0xbf1922b2	-0.59818566
79	0x3ec35906	0.38153857
80	0xbea5bd9a	-0.32371217
81	0xbe5d571c	-0.21615261
82	0xbf5b8072	-0.85742867
83	0x3ee7968f	0.45232055
84	0x3ee5a645	0.44853416
85	0xbf202d1b	-0.62568825
86	0x3f1e2bdb	0.6178567
87	0x3dc5f783	0.0966635
88	0xbecc3e9c	-0.39891517
89	0x3eb7f6c8	0.35930467
90	0x3eded948	0.43525147
91	0xbe63df40	-0.22253132
92	0x3f0cc535	0.54988414
93	0x3cd99494	0.026560105
94	0x3e7c371b	0.24630396
95	0x3f2d0f47	0.67601436
96	0x3e8370f2	0.25672108
97	0x3eb059c4	0.34443486
98	0xbe8d6a24	-0.2762004
99	0x3e6adf37	0.22936712
100	0x3c5dc963	0.013536784
101	0xbe46d164	-0.19415814
102	0xbf1b45bd	-0.6065329
103	0xbe247ada	-0.16062489
104	0xbc4e548e	-0.012593402
105	0x3d9bfa0a	0.076160505
106	0x3f225228	0.6340661
107	0x3f2fbc48	0.6864667
108	0x3e5ba632	0.21450117
109	0xbdf11a85	-0.11772636
110	0xbf33ea4e	-0.70279396
111	0x3e606165	0.21912153
112	0x3ec7d62d	0.3903059
113	0x3d3c7438	0.046009272
114	0xbf8da744	-1.106667
115	0x3e29355e	0.16524264
116	0x3f46a9c7	0.7760281
117	0x3e62a843	0.22134499
118	0x3ee498b7	0.44647762
119	0xbdfed27a	-0.12442489
120	0xbe2c2906	-0.16812524
121	0xbf9561a4	-1.1670423
122	0x3e35caeb	0.17753188
123	0xbe3d926f	-0.18512891
124	0xbe95a5b2	-0.29227978
125	0x3e826278	0.2546575
126	0x3eb2972e	0.34880966
127	0x3ec37044	0.3817159
128	0xbc359be4	-0.0110845305
129	0x3eaae30c	0.33376348
130	0xbe63bd35	-0.22240146
131	0x3e0ba395	0.1363662
132	0x3e990d0c	0.29892766
133	0x3e8883af	0.26662967
134	0xbe886339	-0.266382
135	0x3f05df54	0.52293897
136	0x3d50c878	0.050972432
137	0x3e278a27	0.16361295
138	0x3e61f2d2	0.22065285
139	0x3e6aa742	0.22915366
140	0x3f208083	0.62696093
141	0xbdffd20b	-0.124912344
142	0x3ecb22d8	0.3967502
143	0xbdff0b30	-0.12453306
144	0xbf0c6325	-0.5483878
145	0xbe890316	-0.26760167
146	0xbebcb0c7	-0.3685362
147	0x3b807c52	0.00392107
148	0xbdd9faf2	-0.10643567
149	0xbedcedd4	-0.43150198
150	0x3ee55dc2	0.44798094
151	0x3e410b6c	0.18852013
152	0xbd0ddf86	-0.034636997
153	0xbe865840	-0.26239204
154	0x3ea02c3a	0.31283742
155	0xbee3e5e6	-0.44511336
156	0x3d1f3137	0.038865294
157	0x3d8d830e	0.06909762
158	0xbe6066a2	-0.21914151
159	0xbe462e2f	-0.19353555
160	0x3dfc899e	0.12330936
161	0xbef93a0d	-0.48677102
162	0x3e99d650	0.3004632
163	0x3de08c17	0.1096422
164	0x3e0f738d	0.14008923
165	0xbed678c1	-0.41889003
166	0xbeda2dcd	-0.42613068
167	0xbeb1df85	-0.34740844
168	0x3d7a917c	0.0611739
169	0xbd06924f	-0.032854374
170	0xbe8e0506	-0.27738208
171	0xbeaf3a86	-0.34224337
172	0xbe1018f9	-0.14072026
173	0x3eac3603	0.33634958
174	0x3eff01a1	0.4980593
175	0x3ece3521	0.4027491
176	0x3df8c136	0.12146227
177	0x3e397441	0.18110754
178	0x3efabca0	0.48972034
179	0xbd24a822	-0.040199406
180	0xbe78365b	-0.24239485
181	0xbeab1630	-0.33415365
182	0x3ebb5769	0.36590126
183	0x3e6744fc	0.22584909
184	0x3e539c7b	0.20665161
185	0xbeeccc6e	-0.46249717
186	0xbddb80a9	-0.10717899
187	0x3ece4131	0.40284112
188	0xbe18663a	-0.14882746
189	0xbe09c013	-0.13452177
190	0xbd956778	-0.07295126
191	0xbd6e0669	-0.058111582
192	0x3f190a5f	0.5978145
193	0xbe7bb54a	-0.24580875
194	0x3da875f1	0.082256205
195	0x3e03c822	0.12869313
196	0x3ce3612d	0.027756298
197	0x3f7441b1	0.9541274
198	0x3ece2078	0.40259147
199	0xbd9df61b	-0.077129565
200	0x3e008092	0.12549046
201	0x3e388cee	0.1802251
202	0x3f0c16a9	0.54722077
203	0x3e94f0f2	0.29090077
204	0x3f2b6fce	0.66967475
205	0x3e67cc3b	0.22636501
206	0xbef0978d	-0.46990624
207	0xbc399fb9	-0.011329585
208	0xbe878ef8	-0.26476264
209	0xbe04d232	-0.12970808
210	0xbf983fb1	-1.1894437
211	0x3e3862ed	0.18006487
212	0x3f3fbac2	0.74894345
213	0xbf1ae422	-0.60504353
214	0xbd187102	-0.037217148
215	0xbca79801	-0.020458223
216	0x3d895168	0.0670498
217	0x3f4f3b4c	0.80949855
218	0x3c984c7b	0.018591156
219	0xbe2c339a	-0.1681656
220	0x3e2a17e4	0.16610676
221	0x3d6c3060	0.05766332
222	0x3e80eb03	0.251793
223	0x3d6fd342	0.05855108
224	0x3d3ba5ec	0.045812532
225	0xbde92f33	-0.11385956
226	0xbe753aaf	-0.23948167
227	0x3ee26368	0.44216466
228	0x3d3763ec	0.044773027
229	0xbe5bd624	-0.21468407
230	0xbe6f4056	-0.23364386
231	0xbc35eda3	-0.01110402
232	0xbe844a52	-0.25837952
233	0x3d76aa2e	0.06022089
234	0x3ddea06b	0.10870441
235	0x3ca769a4	0.020436116
236	0x3dad0022	0.08447291
237	0x3dd0d414	0.10196701
238	0xbe810d08	-0.25205255
239	0xbe1b5fba	-0.15173236
240	0x3d37075b	0.04468475
241	0xbdc133f8	-0.094337404
242	0xbfaebb14	-1.3650842
243	0xbebf435c	-0.3735608
244	0x3e340cd2	0.17583016
245	0xbe30683a	-0.1722726
246	0xbd863028	-0.06552154
247	0x3ca22b11	0.019795926
248	0x3e4aa024	0.19787651
249	0xbfc8629d	-1.5655094
250	0x3e4c6848	0.19961655
251	0xbe683d63	-0.22679667
252	0x3e89ff56	0.26952618
253	0x3ef2d111	0.4742513
254	0x3eb3375e	0.3500318
255	0x3daa54fe	0.08316992

lstm.weight_hh_l0 f4 [256, 64]
0	0x3d8d2196	0.06891172
1	0x3df9fe41	0.12206698
2	0xbdbf9cbc	-0.093560666
3	0x3dd8094f	0.105486505
4	0x3e9a674c	0.30156934
5	0x3e42f433	0.19038467
6	0xbe4003db	-0.1875147
7	0x3eb80b34	0.35946047
8	0xbe2268e1	-0.1586032
9	0x3e3fb3e1	0.18720962
10	0x3d0651dd	0.032792915
11	0x3dbfd51f	0.093668215
12	0x3e4f557a	0.2024745
13	0xbdc02592	-0.09382166
14	0x3e81b037	0.25329754
15	0xbe637922	-0.22214177
16	0xbe492ae1	-0.19645263
17	0xbeb1c538	-0.34720778
18	0xbce086dc	-0.027408056
19	0xbd62bb7e	-0.055354588
20	0xbe16ecae	-0.14738724
21	0xbd6c408c	-0.057678744
22	0x3e1a4f4d	0.15069313
23	0x3df74b67	0.12074929
24	0x3b5122cc	0.003191161
25	0xbc273941	-0.0102065215
26	0x3de5d07d	0.112214066
27	0xbec3e65b	-0.38261685
28	0x3d394fcf	0.045242127
29	0x3e613525	0.2199293
30	0xbd8290d2	-0.063752785
31	0x3b303280	0.002688557
32	0x3afcf999	0.001930046
33	0xbe92eefb	-0.28697953
34	0x3eda6606	0.42655963
35	0x3b31bad3	0.0027119413
36	0x3e5689d5	0.20951016
37	0xbed9c178	-0.42530417
38	0xbdf94edc	-0.12173244
39	0xbe9c4535	-0.3052155
40	0xbd7d1aaa	-0.061793007
41	0xbb5513d3	-0.0032513037
42	0xbe298885	-0.16555984
43	0xbde488d0	-0.111589074
44	0xbdaae5fd	-0.08344648
45	0x3e49a3e5	0.19691427
46	0x3ed9848b	0.42483935
47	0x3ea3c824	0.31988633
48	0xbdff0f0b	-0.12454041
49	0x3dfd54f6	0.12369721
50	0x3e5c513c	0.21515363
51	0x3e4cbcff	0.19993971
52	0xbe215a86	-0.15757188
53	0xbeaddc2b	-0.33957037
54	0x3eaa553c	0.33268154
55	0x3e0caab7	0.13736998
56	0xbd6dab38	-0.058024615
57	0xbdf5b02f	-0.11996495
58	0xbe962b29	-0.29329804
59	0x3eeb9127	0.4600918
60	0x3db33a49	0.087513514
61	0xbe4e19c4	-0.20127016
62	0xbdc47170	-0.09591949
63	0x3dc2b620	0.09507394
64	0xbe15ce9f	-0.14629601
65	0x3e321c3c	0.17393583
66	0xbe88cd9b	-0.26719365
67	0x3d17cd0b	0.03706078
68	0x3d8599b8	0.0652346
69	0x3c6ecfb7	0.01457589
70	0x3d3688db	0.04456411
71	0x3e7bc43f	0.2458658
72	0xbe616633	-0.22011642
73	0x3e532e16	0.20623049
74	0xbcbdc709	-0.023166196
75	0x3dfc8d11	0.12331594
76	0xbc2596e2	-0.010106774
77	0x3d9754aa	0.07389195
78	0xbd941640	-0.07230806
79	0xbe01f25b	-0.12690108
80	0xbe31d3b0	-0.17365909
81	0x3dda624e	0.106632814
82	0x3b05b445	0.0020401638
83	0x3e117c20	0.14207506
84	0xbc339961	-0.010961861
85	0x3e50e448	0.20399582
86	0x3dcfa1f3	0.10138311
87	0xbc130238	-0.008972697
88	0x3e47ec03	0.19523625
89	0xbca38c03	-0.019964224
90	0x3e61e924	0.22061592
91	0xbe3ffc0d	-0.18748493
92	0x3e5399da	0.20664158
93	0xbd37db5b	-0.044886928
94	0x3cafb6ed	0.02144953
95	0xbd2e0303	-0.04248334
96	0xbd8927cd	-0.066970445
97	0xbd1b4809	-0.037910495
98	0xbd0e6265	-0.034761805
99	0x3d0141f4	0.03155704
100	0xbe34e6e7	-0.17666207
101	0xbe035565	-0.12825544
102	0xbd84f9ff	-0.064929955
103	0xbe3e362f	-0.18575357
104	0x3d13269e	0.0359255
105	0x3e1fff9b	0.1562485
106	0xbe5b8e17	-0.21440922
107	0xbe31da06	-0.17368326
108	0xbd572527	-0.052525666
109	0xbde36fa1	-0.11105276
110	0x3d9fa1a0	0.077944994
111	0x3e4c9beb	0.19981353
112	0xbe6b6834	-0.22988969
113	0xbe024c80	-0.12724495
114	0x3d4d6be9	0.05015174
115	0x3e610f2a	0.21978441
116	0xbd3382c6	-0.043825887
117	0xbe387ec2	-0.18017104
118	0x3e85ebe3	0.2615653
119	0xbcbd1327	-0.023080422
120	0xbd99e333	-0.07514038
121	0x3c6ea078	0.014564626
122	0x3cbd7041	0.023124816
123	0x3ca67c83	0.020323044
124	0xbd04069e	-0.032232873
125	0xbd69b2bf	-0.05705523
126	0x3e21a703	0.15786366
127	0xbdb97191	-0.09054864
128	0x3e6bc2a2	0.23023465
129	0xbd4ac533	-0.04950447
130	0xbeb6c3e4	-0.35696328
131	0xbeb400d4	-0.35156882
132	0xbe926d11	-0.28598836
133	0xbe94c39a	-0.29055482
134	0x3e551975	0.20810492
135	0xbdb1dd8e	-0.08684836
136	0xbe8054fb	-0.25064835
137	0x3e3b9f72	0.18322542
138	0x3cda60f0	0.026657552
139	0xbd01891e	-0.031624906
140	0xbe80dec2	-0.2516995
141	0xbe5bea8b	-0.2147619
142	0xbc9c64de	-0.019091066
143	0xbe0843ee	-0.13307163
144	0x3e3b0c20	0.18266344
145	0x3eb37f8d	0.3505825
146	0x3e8a853d	0.27054778
147	0x3e785f55	0.24255116
148	0x3d505a19	0.050867174
149	0x3e21fb92	0.15818623
150	0x3dd84577	0.10560124
151	0xbe849f26	-0.2590267
152	0x3cf807fa	0.030277241
153	0x3e1960fd	0.14978404
154	0x3e1fe2e3	0.15613894
155	0x3ea24e29	0.31700256
156	0x3eb48781	0.3525963
157	0xbe4fb4b2	-0.20283774
158	0xbda5ccb7	-0.08095687
159	0xbe264c9a	-0.16240159
160	0xbea3f25b	-0.3202084
161	0x3dac1869	0.08403093
162	0xbe694c17	-0.22782932
163	0xbcc83c60	-0.024442852
164	0xbe2a5006	-0.16632089
165	0x3de58c0f	0.11208355
166	0x3ba3e246	0.005001339
167	0xbd8dd837	-0.06926005
168	0x3cd2fdb7	0.025755746
169	0x3e223f41	0.15844442
170	0xbe429574	-0.19002324
171	0xbddd6610	-0.108104825
172	0x3e3ba579	0.18324842
173	0xbeef41d2	-0.46729904
174	0xbe8ea398	-0.27859187
175	0xbdd95578	-0.10612005
176	0xbec26a1a	-0.37971574
177	0xbe6387e2	-0.22219804
178	0xbe3d5631	-0.1848991
179	0x3d3df28e	0.046373896
180	0xbe315104	-0.17316061
181	0xbe3e9f39	-0.18615426
182	0x3e17cbed	0.14823885
183	0xbda75474	-0.08170405
184	0x3e3942f2	0.18091944
185	0x3e4bb9db	0.19895117
186	0x3d991b6d	0.07475934
187	0xbe9163f4	-0.2839657
188	0xbd39b714	-0.045340613
189	0x3dbb7a0b	0.09154137
190	0x3e97e348	0.2966559
191	0xbde77446	-0.11301474
192	0xbea4185e	-0.3204984
193	0xbc81cd43	-0.015844947
194	0xbdf8b4b1	-0.12143839
195	0xbe21bbad	-0.15794249
196	0x3d6951e8	0.056962878
197	0xbe195e4a	-0.14977375
198	0x3dfd20da	0.123597816
199	0xbe351f9a	-0.17687836
200	0x3dc472fb	0.09592243
201	0xbe07b5ef	-0.13252996
202	0xbd95d21e	-0.07315467
203	0x3d84b72e	0.06480251
204	0xbd0df8c9	-0.03466109
205	0x3ddf7672	0.109112635
206	0x3c3dadbe	0.011577068
207	0x3e3e6534	0.18593293
208	0x3e9db99f	0.3080568
209	0x3e110b54	0.14164478
210	0xbdcab7a9	-0.09898312
211	0xbc987c77	-0.018614037
212	0x3e6bcc1a	0.23027077
213	0xbda33f44	-0.07971051
214	0xbe5e91a9	-0.21735252
215	0x3d1ac601	0.037786487
216	0xbe0c8fd7	-0.13726746
217	0xbdd34fd8	-0.10317963
218	0xbe80bdbc	-0.25144756
219	0x3ba5955d	0.005053206
220	0xbd3d6d24	-0.046246663
221	0xbe372da6	-0.17888507
222	0x3e172c0e	0.147629
223	0x3e8d92f2	0.27651173
224	0xbd4f16a4	-0.0505587
225	0x3db9f18f	0.09079277
226	0xbe8f1751	-0.27947477
227	0xbe6f2e37	-0.23357473
228	0xbe41a82c	-0.18911809
229	0x3e8920b7	0.26782772
230	0x3dbb7e80	0.09154987
231	0xbdc60b03	-0.09670069
232	0xbd0ee476	-0.034885846
233	0xbe7c5f7a	-0.24645796
234	0x3ed6c797	0.4194915
235	0x3ea39838	0.3195207
236	0xbd0ee468	-0.034885794
237	0xbd1abc19	-0.03777704
238	0xbe39629e	-0.18104026
239	0xbdc9743d	-0.09836624
240	0xbcc8741f	-0.024469433
241	0x3d298e3f	0.041395422
242	0x3d4ba8b2	0.049721427
243	0xbe9358ab	-0.28778586
244	0x3ddaa623	0.10676219
245	0x3e053ead	0.1301219
246	0xbeab0473	-0.33401832
247	0xbd2d7204	-0.042345062
248	0xbdea8c46	-0.11452536
249	0xbd01e079	-0.031708214
250	0xbdff122a	-0.124546364
251	0xbd4dca20	-0.05024159
252	0x3dabc501	0.08387185
253	0x3e196d56	0.14983115
254	0x3e06d103	0.13165669
255	0x3c985ece	0.018599894

lstm.bias_ih_l0 f4 [256]
0	0x3cb837ee	0.022487607
1	0xbdc7d161	-0.09756733
2	0x3d9bade9	0.0760153
3	0xbddb7036	-0.10714762
4	0x3dd69948	0.10478455
5	0xbe40c894	-0.18826514
6	0x3dd6fa7b	0.10496994
7	0x3e5dbf7f	0.21655081
8	0xbe82cbbc	-0.25546062
9	0x3d73b21a	0.059496023
10	0xbe0a3316	-0.1349605
11	0xbcae576f	-0.021281926
12	0xbdb26b4b	-0.08711871
13	0xbe5c54c9	-0.21516718
14	0xbd94472f	-0.0724014
15	0x3bd7fa06	0.0065910844
16	0x3e330b21	0.17484714
17	0xbc761537	-0.015019706
18	0xbd171281	-0.03688288
19	0x3dddcd05	0.1083012
20	0x3bae63db	0.0053219623
21	0xbccc9bc7	-0.024976624
22	0x3cb6920a	0.022286434
23	0xbc9d26bb	-0.019183507
24	0xbd88f2ab	-0.0668691
25	0xbe0cbc57	-0.13743721
26	0xbde8eb11	-0.1137296
27	0xbd928751	-0.07154716
28	0x3d973385	0.073828734
29	0x3de9e05f	0.114197485
30	0xbca9b0e8	-0.020714238
31	0xbe197f9f	-0.1499009
32	0xbc2ed90a	-0.010671863
33	0x3de7fdb3	0.11327686
34	0xbd898626	-0.0671504
35	0x3d8242c4	0.06360391
36	0x3dcb29a5	0.099200524
37	0xbd135012	-0.035965033
38	0x3dbd5626	0.09244947
39	0xbd3cf7b1	-0.046134654
40	0xbe65aa75	-0.22428305
41	0x3d52357c	0.051320538
42	0x3b171916	0.0023055724
43	0x3db2b58d	0.08726034
44	0x3d8af277	0.06784528
45	0xbd35c46c	-0.044376776
46	0x3e1a99a7	0.15097676
47	0x3d581e66	0.052763365
48	0x3c22b744	0.009931389
49	0xbd8d77a9	-0.06907589
50	0x3d7d0170	0.06176895
51	0xbc1005a0	-0.008790404
52	0xbe05e038	-0.13073814
53	0xbe27e838	-0.16397178
54	0x3b084c8c	0.0020797579
55	0xbe4e383c	-0.20138639
56	0xbe67ab08	-0.22623837
57	0x3d247333	0.040148925
58	0xbe184004	-0.1486817
59	0xbe37bed1	-0.17943884
60	0xbe17c3b2	-0.14820746
61	0x3dbc00c3	0.09179833
62	0x3dfa5f04	0.12225154
63	0x3d2aa755	0.041663487
64	0xbd2fac7a	-0.042889096
65	0x3e096a69	0.13419499
66	0x3e66e4a7	0.22548161
67	0x3cdf01db	0.027222564
68	0xbdac1d24	-0.08403996
69	0x3d74d78c	0.059775874
70	0x3d767937	0.060174193
71	0x3e85780a	0.26068145
72	0xbcde0579	-0.027102219
73	0xbc942bd9	-0.018087314
74	0x3cc01a09	0.023449915
75	0xbd5399f4	-0.051660493
76	0xbda79b9b	-0.08183976
77	0x3d7e19a1	0.06203616
78	0x3e01dd6d	0.12682123
79	0x3dd3aa44	0.1033521
80	0x3e460d00	0.19340897
81	0xbe071531	-0.13191678
82	0x3b57da5f	0.0032936556
83	0x3ca3575a	0.019939113
84	0x3e2ed07e	0.17071721
85	0x3e4ec8a8	0.20193732
86	0x3e0fa8d9	0.14029254
87	0xbc8ad3dc	-0.016946726
88	0x3c16f0ee	0.009212716
89	0x3e008c11	0.12553431
90	0x3d0ab0d4	0.033860043
91	0xbc57cb86	-0.013171082
92	0xbd3c561f	-0.04598057
93	0x3e2541f6	0.16138443
94	0x3d9e85ce	0.07740365
95	0xbde38078	-0.11108488
96	0xbd6d8410	-0.057987273
97	0x3dbb929e	0.091588244
98	0x3d5df86b	0.054191988
99	0x3d4c9966	0.04995098
100	0x3e1654f1	0.1468084
101	0x3d92ff40	0.07177591
102	0x3e014465	0.12623747
103	0xbd711eb4	-0.05886717
104	0x3d48c309	0.049014125
105	0x3cf39520	0.029734194
106	0x3dd000b1	0.10156382
107	0x3d87f76b	0.06638988
108	0xbd0951f3	-0.03352542
109	0xbde970b8	-0.113984525
110	0x3df6c782	0.12049772
111	0x3da2d6f8	0.07951158
112	0xbde0e7f2	-0.1098174
113	0x3da05eaf	0.078305595
114	0x3cfbd6c9	0.030742066
115	0x3de53685	0.111920394
116	0x3d8f1c8a	0.06987865
117	0xbb022376	-0.0019857562
118	0x3dc5cd44	0.09658292
119	0xbe4968f0	-0.19668937
120	0xbba3e68f	-0.00500185
121	0xbdfbf0d8	-0.12301797
122	0xbe83e649	-0.2576163
123	0xbb2b47e1	-0.0026135372
124	0xbd654953	-0.05597813
125	0x3daa4c24	0.08315304
126	0x3e417914	0.18893844
127	0x3dbc0265	0.09180144
128	0x3db783c7	0.089606814
129	0x3ca37fe0	0.019958436
130	0x3cc1d01e	0.023658808
131	0xbd2865aa	-0.04111258
132	0xbd59f198	-0.053208917
133	0xbe03fc46	-0.12889203
134	0x3dbb6aa6	0.09151201
135	0xbd810f67	-0.06301766
136	0xbde3dd67	-0.111262135
137	0x3dcd8683	0.10035422
138	0x3ca75986	0.02042843
139	0x3ca7dade	0.020490106
140	0x3d0f4ab3	0.034983348
141	0xbc90bebc	-0.017669074
142	0xbe0d687e	-0.13809392
143	0xbd92c5d8	-0.07166642
144	0xbdac1120	-0.08401704
145	0x3de11ddd	0.10992024
146	0x3daa2a5b	0.0830886
147	0x3de8f951	0.11375678
148	0xbd9e5985	-0.07731918
149	0x3d8a3828	0.06748992
150	0x3df24c74	0.118309885
151	0xbda3b848	-0.07994133
152	0xbc597a59	-0.013273799
153	0x3dd630a2	0.10458495
154	0xbd95cfb4	-0.07315007
155	0xbd0f3fb0	-0.034972847
156	0x3da285b1	0.07935656
157	0xbe07e489	-0.13270773
158	0xbc592d69	-0.0132554555
159	0xbdb83771	-0.089949496
160	0xbdb39f21	-0.08770586
161	0x3cf3410f	0.029694108
162	0xbe0a2a2b	-0.13492648
163	0x3c3af8e9	0.011411884
164	0xbdc3d070	-0.09561241
165	0xbdc13c3a	-0.094353154
166	0x3de52c75	0.1119012
167	0xbd7db9b7	-0.06194469
168	0x3db25f85	0.08709625
169	0xbd786d05	-0.060650844
170	0xbcd05a4c	-0.025433682
171	0xbd63ae17	-0.055585947
172	0x3d940353	0.072271965
173	0x3d515ff0	0.051116884
174	0xbd1407b7	-0.03614017
175	0xbcad3b25	-0.021146366
176	0xbdaf730d	-0.08566866
177	0xbdb581d7	-0.088626556
178	0xbe0b8cc3	-0.13627915
179	0x3ce9353a	0.028467763
180	0xbd50a21f	-0.05093586
181	0xbc74e718	-0.014947675
182	0x3cc1de5e	0.023665603
183	0x3d5e848f	0.054325636
184	0xbc74e645	-0.014947479
185	0x3e123cce	0.14281008
186	0x3dd5902b	0.104278885
187	0xbd1086e0	-0.035284877
188	0xbd1fff7d	-0.039062012
189	0x3c675cc2	0.014121236
190	0xbc0165e4	-0.007897828
191	0x3d1e55e1	0.03865612
192	0x3d3f008d	0.046631385
193	0xbda9159c	-0.08256075
194	0x3e2c7194	0.16840202
195	0xbce5e3b3	-0.028062677
196	0x3c8ea559	0.017412828
197	0xbe2a3842	-0.16623023
198	0x3ddb5796	0.10710065
199	0x3e98af77	0.2982137
200	0xbe1bc24c	-0.15210837
201	0xbd847d7a	-0.06469245
202	0xbcb80b30	-0.022466272
203	0xbde22b3a	-0.11043401
204	0xbe020dcb	-0.12700574
205	0xbdd0cfc3	-0.101958774
206	0xbc07912f	-0.008274361
207	0xbd6ce067	-0.057831194
208	0x3e82f384	0.25576413
209	0x3d9d7a1a	0.07689305
210	0xbe360d9f	-0.17778634
211	0x3c4319e2	0.011908026
212	0xbd0a708d	-0.033798743
213	0x3e0184ad	0.12648268
214	0x3d68f9f9	0.056879018
215	0xbe269410	-0.16267419
216	0xbc9af010	-0.018913299
217	0x3dbe1d29	0.092829056
218	0xbd3668ec	-0.044533655
219	0xbd57ba19	-0.05266771
220	0x3c0e5533	0.008687305
221	0xbcb421a0	-0.02198869
222	0xbd859264	-0.065220624
223	0xbe0e844a	-0.13917652
224	0xbe0f1e38	-0.13976371
225	0xbdbfd2f4	-0.09366408
226	0xbe08112c	-0.132878
227	0xbc9c3eeb	-0.01907297
228	0xb9b7e621	-0.0003507594
229	0x3c2b5051	0.010456161
230	0xbe004d08	-0.12529385
231	0xbdfc2f78	-0.123137414
232	0xbe0df2e1	-0.13862182
233	0x3dec3a82	0.11534597
234	0xbe0f669f	-0.1400399
235	0x3d8b413a	0.0679955
236	0x3c9c5c04	0.019086845
237	0xbc57073b	-0.0131242825
238	0x3e2a3d7a	0.16625014
239	0xbc968e65	-0.018378446
240	0xbdd1ce08	-0.102443755
241	0xbdd26d0f	-0.102747075
242	0x3cbaaffe	0.022788998
243	0x3d372af6	0.044718705
244	0xbccef34c	-0.025262497
245	0x3c157aaa	0.009123484
246	0x3dc8e714	0.098097
247	0xbe7106a5	-0.23537691
248	0xbc38e961	-0.011286111
249	0xbdbd88b2	-0.09254588
250	0xbdcce374	-0.10004321
251	0xbd9e36cd	-0.07725296
252	0xbd563263	-0.052294146
253	0x3de9c150	0.114138246
254	0x3d2f39b2	0.042779632
255	0x3dde4e72	0.10854806

lstm.bias_hh_l0 f4 [256]
0	0xbc577c40	-0.013152182
1	0x3d500291	0.050783698
2	0x3e8284d0	0.25491953
3	0xbc7f4610	-0.015580669
4	0xbd9c17fa	-0.07621761
5	0xbe1a5374	-0.15070897
6	0x3e2e3f54	0.17016345
7	0x3e85f2be	0.2616176
8	0xbe6f5917	-0.23373829
9	0xbdf2eb59	-0.11861295
10	0xbe57056f	-0.20998167
11	0xbd567aa5	-0.052363057
12	0x3ba51443	0.005037816
13	0xbde3886d	-0.111100055
14	0xbdcd6ed3	-0.10030904
15	0x3d7a614c	0.061127946
16	0x3e7589e9	0.2397839
17	0xbccc97f2	-0.024974797
18	0x3d455991	0.04818112
19	0xbddd3c31	-0.10802496
20	0x3e159ae1	0.14609863
21	0x3c481f2d	0.012214464
22	0x3dd52539	0.1040749
23	0x3c66dfce	0.014091445
24	0x3bf3759a	0.0074297907
25	0xbc9b66ef	-0.018969981
26	0xbd93ff1d	-0.07226393
27	0xbd89dd45	-0.06731657
28	0xbdc8fc73	-0.09813776
29	0xbdb2a123	-0.08722141
30	0xbde882bf	-0.11353063
31	0x3cf01053	0.029304659
32	0x3cbb831d	0.022889668
33	0xbc034270	-0.008011445
34	0xbd195a88	-0.037439853
35	0x3d9b560c	0.075847715
36	0xbcfc46c0	-0.030795455
37	0x3dd0a711	0.101881154
38	0xbd0aa484	-0.0338483
39	0xbd981475	-0.07425777
40	0xbe0b42f2	-0.13599756
41	0x3d0983ee	0.033573084
42	0xbd68a414	-0.056797102
43	0x3d3e8a1b	0.046518426
44	0x3d34dbb2	0.04415483
45	0xbd28a9d0	-0.04117757
46	0x3d1eaaeb	0.03873722
47	0xbce27b87	-0.027646793
48	0x3d754b62	0.059886344
49	0xbd8b471f	-0.06800675
50	0x3d91d372	0.07120408
51	0x3e036120	0.12830019
52	0xbd84ea01	-0.06489945
53	0xbd724f45	-0.05915763
54	0xbdd00e18	-0.10158938
55	0xbe12bda8	-0.1433016
56	0xbcc3cc8e	-0.02390125
57	0x3cc6587d	0.024212116
58	0xbe4564c8	-0.19276726
59	0xbe450d33	-0.19243316
60	0xbe32e86c	-0.17471474
61	0xbdbd2a1f	-0.092365496
62	0x3d09d6e7	0.033652212
63	0x3d971537	0.07377093
64	0x3d84e610	0.064891934
65	0x3e1cf06c	0.15326089
66	0x3ddb3292	0.10703005
67	0xbd7d07ae	-0.061774902
68	0x3c87ef56	0.016593616
69	0xbd726de3	-0.059186827
70	0x3df902e4	0.121587545
71	0x3ea6357e	0.32462686
72	0xbd9192ff	-0.071081154
73	0xbd00d23e	-0.031450503
74	0x3e25edaf	0.1620395
75	0x3cf6c7d1	0.030124577
76	0xbd779249	-0.060442243
77	0xbdf42258	-0.11920613
78	0xbca21c30	-0.019788831
79	0x3dc94134	0.0982689
80	0x3e135c4c	0.14390677
81	0xbe08b8a3	-0.13351683
82	0xbc92c71c	-0.017917208
83	0x3d4adfdf	0.049529906
84	0x3dd77cfa	0.10521884
85	0x3dc7812b	0.09741434
86	0x3e123f4b	0.14281957
87	0xbd1d4ad4	-0.03840144
88	0xbc9f0f9f	-0.019416628
89	0xbd7ab44c	-0.0612071
90	0xbe01d723	-0.12679724
91	0x3d655bf3	0.055995893
92	0x3d587467	0.052845385
93	0x3d9fe4f3	0.078073405
94	0x3e0dd993	0.13852529
95	0xbc9e646d	-0.019334996
96	0xbd7efcf0	-0.06225294
97	0xbab2f811	-0.0013654252
98	0x3dfd1973	0.1235837
99	0x3db65d4c	0.08904514
100	0x3cebfc82	0.028806929
101	0x3d7958ac	0.06087558
102	0xbd900025	-0.070312776
103	0x3d99248c	0.07477674
104	0xbde006e8	-0.10938817
105	0x3dd7bfe8	0.1053465
106	0xbd3f084b	-0.04663877
107	0x3ded1cc9	0.11577756
108	0xbdd9b397	-0.10629957
109	0x3d5ced77	0.0539374
110	0x3d85bfd5	0.0653073
111	0xbd5a0ffa	-0.053237893
112	0x3d752c66	0.059856795
113	0xbe1737ef	-0.1476743
114	0x3e2e7608	0.17037213
115	0x3e2bc224	0.16773278
116	0xbd3b4a8b	-0.045725387
117	0xbc2a90d3	-0.010410505
118	0xbd33aba4	-0.04386486
119	0xbe02b387	-0.12763797
120	0xbcdc390b	-0.026882669
121	0xbbf6f4a2	-0.0075364867
122	0xbe55f3a5	-0.20893724
123	0xbd039b68	-0.03213063
124	0xbcd383a4	-0.025819607
125	0x3e33ae85	0.17547043
126	0xbd46f82f	-0.04857653
127	0x3d352e85	0.044233818
128	0xbb3b5d06	-0.0028589382
129	0xbd05654b	-0.032567304
130	0xbd461925	-0.048363823
131	0xbc5c2cf6	-0.013438454
132	0xbca791cc	-0.020455264
133	0x3d87a7d3	0.06623807
134	0xbca7b1ed	-0.020470584
135	0x3d3631bd	0.044481028
136	0xbd7f041a	-0.06225977
137	0x3dd9d305	0.10635952
138	0xbc5e9690	-0.013585702
139	0xbd31d861	-0.043419246
140	0xbdff482d	-0.12464938
141	0x3d7f771d	0.062369455
142	0x3da3009c	0.079591006
143	0x3d6d567d	0.05794381
144	0x3df1642c	0.117866844
145	0x3c01f1a8	0.0079311505
146	0x3c85d897	0.01633863
147	0x3d59aa77	0.053141084
148	0x3d45124e	0.04811316
149	0x3d8fab5a	0.070151046
150	0x3b136129	0.0022488332
151	0xbd090679	-0.03345344
152	0x3dc06649	0.09394509
153	0x3baf8d9f	0.0053574587
154	0x3dd2c664	0.10291746
155	0x3df3a670	0.1189698
156	0xbd3d3d3c	-0.046200976
157	0xbd215446	-0.03938701
158	0x3c86d1ee	0.016457524
159	0xbdb0c1b3	-0.08630695
160	0xbdec1469	-0.115273304
161	0xbd64730e	-0.055773787
162	0x3da092d1	0.07840503
163	0xbd62d7ee	-0.055381708
164	0xbd8ce3d8	-0.06879395
165	0x3dd5774c	0.10423145
166	0xbd9ec341	-0.077520855
167	0x3dcb407d	0.099244095
168	0xbb87dba7	-0.0041460576
169	0x3d6ad53f	0.057332274
170	0xbd70db6d	-0.05880301
171	0xbce36d23	-0.027762001
172	0x3bc795fb	0.006090877
173	0xbe0e33e3	-0.1388698
174	0xbd1c50d3	-0.038163017
175	0x3cd16f91	0.025565894
176	0xbd8d0b6b	-0.068869434
177	0xbdcc26b9	-0.09968323
178	0xbd9d717b	-0.0768766
179	0x3d6c6ddb	0.057721954
180	0xbd9536b7	-0.07285827
181	0x3c5a0e3e	0.01330906
182	0x3c804f68	0.015662864
183	0xbd9288e9	-0.0715502
184	0x3d9350d3	0.0719315
185	0x3d2a6a6b	0.041605394
186	0xbdb3a87f	-0.087723725
187	0xbc1a4201	-0.009415151
188	0x3c83b277	0.01607631
189	0x3d0570d5	0.032578308
190	0x3d1e5939	0.038659308
191	0xbd8f03ed	-0.06983171
192	0x3d053559	0.03252158
193	0x3d856b34	0.06514588
194	0x3e7f7609	0.2494737
195	0xbcfd5275	-0.030923108
196	0xbd715b47	-0.05892494
197	0xbe2e7bc6	-0.17039403
198	0x3e55a3aa	0.20863214
199	0x3e92bf1f	0.2866144
200	0xbe26c921	-0.16287662
201	0xbd99aaa0	-0.07503247
202	0x3d04003b	0.032226782
203	0xbe19338d	-0.14961071
204	0xbe1428ed	-0.14468737
205	0xbd06ffcc	-0.03295879
206	0x3d452032	0.048126407
207	0xbd312b0f	-0.043253954
208	0x3e96faba	0.29488164
209	0x3ce1d283	0.0275662
210	0xbc52ff0c	-0.012878191
211	0x3d0a4e56	0.033766113
212	0x3e26a53a	0.16273966
213	0x3d35219e	0.044221513
214	0x3dbb4d04	0.09145549
215	0xbd884944	-0.06654599
216	0xbe2ec819	-0.17068519
217	0x3c3a41b2	0.011368202
218	0xbdb91f2c	-0.09039149
219	0xbe0e77eb	-0.13912933
220	0x3cb91a37	0.022595508
221	0xbd03a360	-0.03213823
222	0xbe08a59f	-0.1334443
223	0xbd9f204f	-0.07769834
224	0xbd95a1a8	-0.07306224
225	0x3d1fb874	0.038994268
226	0xbd8af947	-0.06785827
227	0xbd41a3ea	-0.04727546
228	0x3ce555b1	0.027994962
229	0xbd5c3498	-0.053761095
230	0xbd32b170	-0.04362625
231	0xbde40891	-0.111344464
232	0x3cbe317f	0.023216961
233	0xbcc58c49	-0.024114745
234	0xbd9cd41f	-0.076576464
235	0xbc431b03	-0.011908296
236	0xbe1db6c2	-0.15401748
237	0xbd61a5eb	-0.055089872
238	0x3db33831	0.08750952
239	0x3e21a197	0.15784298
240	0xbdec219c	-0.11529848
241	0xbe02052d	-0.12697287
242	0x3ca5da64	0.020245738
243	0xbdde35f9	-0.10850138
244	0xbd84f3a4	-0.06491783
245	0xbe4f034f	-0.20216106
246	0xbde85958	-0.11345166
247	0xbd8eb9a2	-0.069690004
248	0xbe5b0e34	-0.21392137
249	0xbc26f386	-0.010189896
250	0xbe0bba0f	-0.13645194
251	0xbd1198a6	-0.035545968
252	0xbd5cbf61	-0.05389345
253	0x3cb5cef3	0.022193408
254	0x3e26c5a2	0.16286328
255	0x3e0d71c6	0.13812932

fc.weight f4 [4, 64]
0	0xbd32ff7f	-0.04370069
1	0x3c9513ef	0.018197982
2	0xbd106781	-0.03525496
3	0x3cb86875	0.022510746
4	0xbd03983b	-0.0321276
5	0xbcc9160d	-0.024546647
6	0x3d3d36c3	0.046194803
7	0x3c9f6d04	0.019461162
8	0x3d2e948a	0.042622127
9	0xbd21f914	-0.03954418
10	0x3d0af55c	0.0339254
11	0xbc915b58	-0.017743751
12	0x3db79160	0.08963275
13	0x3d97b680	0.07407856
14	0xbd8bf69d	-0.06834147
15	0x3b901906	0.0043975143
16	0x3c16d699	0.0092064375
17	0x3d1aa081	0.037750725
18	0x3d841db5	0.06450979
19	0xbd5e9755	-0.05434354
20	0xbc88d675	-0.016703824
21	0x3c890d88	0.016730085
22	0x3bbe8946	0.005814704
23	0x3cdab4b3	0.026697492
24	0x3b436e45	0.0029820364
25	0xbcfa41f5	-0.030549029
26	0xbd34872d	-0.044074226
27	0x3c8cbd05	0.017179975
28	0xbdb2381f	-0.087021105
29	0xbd0be5b7	-0.03415462
30	0xbd3bb0c3	-0.04582287
31	0x3d370674	0.04468389
32	0xbc906c11	-0.017629655
33	0xbd2e02b3	-0.042483043
34	0x3bb5470c	0.005532151
35	0x3b98a819	0.0046587107
36	0x3c20e2c8	0.009819694
37	0x3d1bb03d	0.03800987
38	0x3d81ae86	0.06332116
39	0x3ce2345c	0.027612858
40	0x3e07ce8f	0.1326239
41	0xbcf09424	-0.029367514
42	0xbcfdcd84	-0.030981787
43	0xbcb1a1c1	-0.021683576
44	0x3d39c132	0.04535026
45	0x3cf32029	0.029678421
46	0xbd720eb7	-0.059096064
47	0x3d0215dc	0.031759128
48	0xbd1797df	-0.03701007
49	0x3ca322ee	0.019914117
50	0x3df94974	0.12172213
51	0xbe71f8ac	-0.23630017
52	0xbd7301e7	-0.059327986
53	0x3cb9f7c7	0.022701157
54	0x3da18d36	0.07888262
55	0x3c2971e6	0.010342097
56	0x3b81ec67	0.003964949
57	0x3c8ed259	0.017434286
58	0x3cc5bec9	0.024138825
59	0x3d62f850	0.05541259
60	0x3d389c54	0.04507096
61	0xbd4ddf39	-0.05026171
62	0xbdd82063	-0.10553052
63	0x3c1e257c	0.009652492
64	0x3e0bffab	0.13671748
65	0x3d776dd1	0.060407463
66	0xbabd7d31	-0.0014456866
67	0xbcf1ccd3	-0.029516613
68	0x3d9eba93	0.0775043
69	0x3d8730b2	0.06601085
70	0xbd62a37a	-0.055331685
71	0xbd0a72f4	-0.033801034
72	0xbcb5925e	-0.02216452
73	0xbcff5ab5	-0.031171182
74	0xbd4a8774	-0.049445584
75	0xbd28f093	-0.041245054
76	0xbd747c09	-0.0596886
77	0x3d3aaa69	0.045572672
78	0xbd314f64	-0.043288603
79	0x3cc400ef	0.023926226
80	0x3c83f707	0.016109003
81	0xbd48dd6d	-0.049039293
82	0xbc53a224	-0.012917075
83	0x3d3616f5	0.044455487
84	0x3d2dc64d	0.042425442
85	0xbd40f2d7	-0.04710659
86	0x3daf69f4	0.08565131
87	0xbb77ad1a	-0.0037792386
88	0x3d1a7da5	0.03771748
89	0x3d37861d	0.044805635
90	0x3de69450	0.11258757
91	0x3d703efd	0.05865382
92	0xbc9bdb7f	-0.019025562
93	0xbd72db9f	-0.05929148
94	0xbdd82070	-0.10553062
95	0xbcddbd73	-0.027067875
96	0x3d0901a9	0.03344885
97	0x3d588763	0.05286349
98	0xbba332d1	-0.004980423
99	0xbd229fd2	-0.039703198
100	0x3af2c5b9	0.0018522061
101	0xbc8a3d07	-0.016874803
102	0x3dc5c5cf	0.096568696
103	0xbd3ac290	-0.045595706
104	0xbdbe4029	-0.09289581
105	0xbd3e3530	-0.046437442
106	0xbda73cf6	-0.08165924
107	0xba2f975a	-0.00066982734
108	0xbdb2494d	-0.08705387
109	0xbd45d2ed	-0.048296858
110	0xbd382530	-0.04495734
111	0xbd50c6cc	-0.050970837
112	0x3c8becf6	0.017080765
113	0xbc703dce	-0.014663173
114	0xbd99a19b	-0.07501527
115	0x3e73d227	0.23810636
116	0xbc3e5575	-0.011617054
117	0x3cd0046f	0.02539274
118	0x3ab0c4f0	0.0013486426
119	0x3d1403ed	0.036136556
120	0xbb5c6ff7	-0.0033636072
121	0xbcf2bba2	-0.029630486
122	0x3ce49fa3	0.027908152
123	0xbd4f8b9d	-0.050670255
124	0xbc228c0c	-0.009921085
125	0xbdcc8fa4	-0.09988335
126	0x3d641b97	0.055690374
127	0x3dba2365	0.09088782
128	0xbe1798fe	-0.14804456
129	0xbd6b98e8	-0.05751887
130	0x3df406bb	0.11915346
131	0x3d625b36	0.055262767
132	0xbdae3371	-0.085059054
133	0x3a8daa7c	0.0010808255
134	0x3d819f58	0.063292205
135	0x3cad46a7	0.021151854
136	0xbd8fc551	-0.07020057
137	0x3da13c99	0.07872886
138	0x3d4e5f18	0.050383657
139	0xbbc37031	-0.005964302
140	0x3d05cb12	0.032664366
141	0xbe03078f	-0.12795852
142	0xbd919bb9	-0.0710978
143	0x3dd8343e	0.105568394
144	0xbccccb6e	-0.024999347
145	0xbdcb6a40	-0.09932375
146	0x3d8e8216	0.06958406
147	0x3d29d0be	0.041458838
148	0xbdd5ca6c	-0.104389995
149	0xb9d95329	-0.00041451424
150	0xbd4c26ce	-0.049841695
151	0x3d83ee0f	0.064418904
152	0x3ce110f6	0.027473908
153	0x3d2c19b5	0.042016704
154	0xbd3e6479	-0.046482537
155	0xbd80bff9	-0.06286616
156	0xbd758350	-0.059939682
157	0xbd93a977	-0.07210057
158	0x3d4e1014	0.050308302
159	0xbd7dc39e	-0.061954133
160	0x3c2711ba	0.010197097
161	0x3cb4e096	0.022079747
162	0xbd3ec77e	-0.04657697
163	0x3d25bc57	0.040462818
164	0xbd9881e6	-0.07446651
165	0xbddcd785	-0.107832946
166	0xbc71a682	-0.014749171
167	0x3d3bdaee	0.045863084
168	0x3db589db	0.088641845
169	0x3e37fff8	0.17968738
170	0x3c9b188b	0.018932601
171	0xbd1407ce	-0.036140256
172	0xbd9fa0ad	-0.07794318
173	0x3d4501fe	0.048097603
174	0x3d91a15c	0.07110855
175	0xbd4396f1	-0.04775137
176	0x3d0e0451	0.034672085
177	0x3ce5513d	0.027992839
178	0xbd21a5a3	-0.039464604
179	0x3d30781f	0.043083306
180	0x3d2a15e6	0.04152479
181	0x3b919dd7	0.004443865
182	0xbd49e9bd	-0.049295176
183	0xbcd80e34	-0.02637396
184	0xbd96d8f2	-0.07365598
185	0x3d860a62	0.06544949
186	0x3d4419b2	0.047876067
187	0x3d83790d	0.06419573
188	0x3ca9dd49	0.0207354
189	0x3d461260	0.048357368
190	0x3d0434fa	0.032277085
191	0xbd4e3acc	-0.05034904
192	0xbdb4b9fd	-0.08824537
193	0x3d97daf4	0.07414809
194	0xbd97c363	-0.07410314
195	0x3e0aa6b5	0.13540156
196	0xbe01ea1c	-0.12686962
197	0x3cf8f691	0.03039101
198	0x3b304cff	0.0026901362
199	0xbde39dc8	-0.11114079
200	0xbe069ce4	-0.13145787
201	0x3dd71a2f	0.10503041
202	0xbc71be68	-0.014754869
203	0x3e00ddab	0.1258456
204	0xbd05cedd	-0.032667983
205	0x3e2594d7	0.16170059
206	0xbab2e270	-0.0013647806
207	0xbe136cf3	-0.1439703
208	0x3d5ba8d0	0.05362779
209	0x3dffbf70	0.12487686
210	0x3c828379	0.015931832
211	0x3dacdec7	0.08440929
212	0x3d2c9cb4	0.04214163
213	0x3df16b9d	0.11788104
214	0x3d2704c6	0.040776037
215	0xbd9cd271	-0.07657326
216	0xbc677c4c	-0.014128756
217	0x3c36a470	0.011147603
218	0xbbdb67bb	-0.0066957152
219	0x3cfac131	0.030609699
220	0xbd3212e0	-0.04347503
221	0xbda9cd15	-0.082910694
222	0x3d6a9f97	0.057281103
223	0xbdc24cf2	-0.094873324
224	0xbd8ad8c7	-0.06779628
225	0xbd919376	-0.07108204
226	0x3e0cace1	0.13737823
227	0x3d35053e	0.044194452
228	0x3e0a11f8	0.13483417
229	0x3d357c64	0.04430808
230	0xbc50bc6d	-0.012740237
231	0xbe08404e	-0.1330578
232	0x3cc79032	0.02436075
233	0x3e0449df	0.12918805
234	0x3d281da4	0.041043893
235	0xbe28e2d9	-0.16492786
236	0x3d94ed0c	0.072717756
237	0xbd994125	-0.074831285
238	0xbde74bae	-0.11293732
239	0x3db1a6ba	0.08674379
240	0xbe0209a4	-0.1269899
241	0x3c655e22	0.013999494
242	0xbdd73839	-0.105087705
243	0x3d25a040	0.04043603
244	0xbcf45711	-0.029826673
245	0xbdb5ed49	-0.08883149
246	0xbabec998	-0.0014555929
247	0xbcea0ca6	-0.028570484
248	0x3d5a41bc	0.053285345
249	0x3dfd3be6	0.1236494
250	0xbd742411	-0.059604708
251	0x3cfe1edd	0.031020576
252	0x3d36ac2a	0.044597782
253	0xbd144c6e	-0.0362057
254	0x3daf7ae9	0.08568365
255	0x3db29ce0	0.08721328

fc.bias f4 [4]
0	0x3d3d4a7e	0.04621362
1	0x3daf56bc	0.08561465
2	0x3d2af058	0.041733116
3	0xbc91753f	-0.017756103
